Project1/eigenweight2t.npy (npy, 7524 bytes, 1 tensors)

array f4 [43, 43]
000000 64 d4 df c9 17 42 ef c9 57 4c ca c9 97 6b ca c9
       -1.8336125e+06 -1.9600029e+06 -1.6572269e+06 -1.6582269e+06
000010 e1 8c 8b c8 82 d5 09 ca f4 7f 57 ca 2b d3 cd ca
       -285799.03 -2.2582725e+06 -3.530749e+06 -6.7444695e+06
000020 36 1b 19 ca 0e 13 22 ca 3a a6 91 ca 68 dd ab ca
       -2.5084935e+06 -2.6554275e+06 -4.772637e+06 -5.631668e+06
000030 e8 df 4e ca ea 46 b1 ca 7e cb 2c ca 44 73 df c9
       -3.389434e+06 -5.809013e+06 -2.8310715e+06 -1.8305045e+06
000040 99 3f 0f ca 52 24 3e ca 93 e3 21 ca 46 be 8f c9
       -2.3469822e+06 -3.1152845e+06 -2.6523888e+06 -1.1775448e+06
000050 8a 2b 9c ca 54 5d 1a ca c9 3d 33 ca 8c 4a ab c9
       -5.117381e+06 -2.529109e+06 -2.9366902e+06 -1.4032175e+06
000060 41 07 45 ca a5 b5 31 ca d9 aa d3 c9 45 70 1d c9
       -3.2281122e+06 -2.9115932e+06 -1.7339791e+06 -644868.3
000070 87 01 26 ca a3 38 32 ca ca 71 39 ca 40 e7 ab c9
       -2.7198418e+06 -2.9199768e+06 -3.0383225e+06 -1.408232e+06
000080 90 08 bc c8 e7 43 c1 c9 6c 8b 99 c9 01 e3 80 c9
       -385092.5 -1.5832289e+06 -1.2578375e+06 -1.0558401e+06
000090 27 71 e5 c9 dc e0 da c9 e8 41 b5 c9 61 c5 66 ca
       -1.8795889e+06 -1.7930515e+06 -1.484861e+06 -3.7809522e+06
0000a0 4c c3 2f ca cc 75 9f ca 6a 6b 3e ca 05 f8 b0 c9
       -2.879699e+06 -5.22519e+06 -3.1198345e+06 -1.4497286e+06
0000b0 9f 08 3c c9 a9 bc 7a c9 4a 61 2b c9 d1 25 7e c8
       -770185.94 -1.02701856e+06 -701972.6 -260247.27
0000c0 65 e1 cf c9 73 97 ee c9 05 3a 43 ca 4f e1 d7 c9
       -1.7029566e+06 -1.9545424e+06 -3.1985932e+06 -1.7684899e+06
0000d0 5f 1c 57 c9 83 8f 51 ca 7a 22 70 ca 64 b5 28 ca
       -881093.94 -3.4334408e+06 -3.9343665e+06 -2.764121e+06
0000e0 af f9 66 ca 94 df 9d c9 ec 71 aa c9 bd fa 0f ca
       -3.7842998e+06 -1.2932985e+06 -1.3962855e+06 -2.3589592e+06
0000f0 f9 2b 22 ca c1 ee 00 ca 02 04 45 c9 5f df 0d ca
       -2.6570222e+06 -2.1124322e+06 -806976.1 -2.3244398e+06
000100 2d 78 b7 c9 43 6b 09 ca c2 60 33 c9 7b 8e b7 c9
       -1.5029816e+06 -2.2514728e+06 -734732.1 -1.5036954e+06
000110 e9 e4 cd c9 27 60 a8 c9 30 fb 74 c8 c0 e3 97 c9
       -1.6866851e+06 -1.3793329e+06 -250860.75 -1.24428e+06
000120 57 37 9a c9 a9 6a 94 c9 40 a3 57 c9 7c ed 08 c8
       -1.2633389e+06 -1.2158291e+06 -883252.0 -140213.94
000130 60 58 a6 c9 f5 cc 0f c9 76 43 2f c9 e8 07 26 c9
       -1.3627e+06 -589007.3 -717879.4 -680062.5
000140 ac 07 93 c9 5f a7 66 c9 be 1b bf c9 97 f0 86 c9
       -1.2044695e+06 -944757.94 -1.5655598e+06 -1.1054269e+06
000150 45 eb 0d ca 89 74 cf c9 15 fe e5 46 0b 97 dc c8
       -2.3252012e+06 -1.6994731e+06 29439.041 -451768.34
000160 d6 f0 e5 c8 10 a9 c7 c8 c1 76 a5 c6 10 5e bb 45
       -470918.7 -408904.5 -21179.377 5995.758
000170 21 a0 0e c7 dc 20 4d c9 0c 61 b8 47 84 f6 26 c9
       -36512.13 -840205.75 94402.09 -683880.25
000180 b2 78 4d 49 b3 77 eb 48 9b 29 2a 45 f7 ac 97 c9
       841611.1 482237.6 2722.6003 -1.2425269e+06
000190 88 af 38 c9 2f 73 16 48 b7 4d 90 c6 72 ec f1 48
       -756472.5 154060.73 -18470.857 495459.56
0001a0 7f 08 56 48 58 1b 3b c7 e5 3d ad c9 62 0f 91 c8
       219169.98 -47899.344 -1.4191966e+06 -297083.06
0001b0 ab a4 26 c8 96 ff d9 c6 0e 62 de c8 b0 6b 86 48
       -170642.67 -27903.793 -455440.44 275293.5
0001c0 10 4e c6 47 09 a7 d7 47 c6 d7 de c8 68 35 54 c8
       101532.125 110414.07 -456382.2 -217301.62
0001d0 93 fc 69 c9 e3 35 19 47 d6 6e 1d c7 17 df 93 48
       -958409.2 39221.887 -40302.836 302840.72
0001e0 fb cc 7a c8 46 f0 71 48 9b ce 81 c8 dc 89 bb 46
       -256819.92 247745.1 -265844.84 24004.93
0001f0 ad 29 bd c5 6c aa ae 48 f9 54 04 c9 3f f5 98 c9
       -6053.2095 357715.38 -542031.56 -1.2530319e+06
000200 2e 48 90 c8 22 ab 43 49 ee cc bf 45 9f 05 89 48
       -295489.44 801458.1 6137.616 280620.97
000210 b3 a5 fd c7 53 6f c8 47 23 1d 11 49 7f 81 34 49
       -129867.4 102622.65 594386.2 739351.94
000220 7e 56 45 c9 4b c6 e1 48 70 7e ce c8 c4 4d b6 49
       -808295.9 462386.34 -422899.5 1.4934325e+06
000230 f9 58 eb 49 af 09 c2 48 2b 3f 42 49 ff c8 33 c8
       1.9279671e+06 397389.47 795634.7 -184099.98
000240 c1 14 20 49 bb a1 be 48 b9 94 b3 49 f3 97 2b 49
       655692.06 390413.84 1.4711271e+06 702847.2
000250 1e 7f c4 48 ad 99 e0 c7 39 56 17 c9 25 b6 65 49
       402424.94 -114995.35 -619875.56 940898.3
000260 f8 c7 84 47 ef 1f 11 49 0b 4b 4c 49 e6 e6 15 49
       67983.94 594430.94 836784.7 613998.4
000270 e9 11 4c c8 5d 53 2e c9 9c 4c 16 48 6c 9e 04 c8
       -208967.64 -714037.8 153906.44 -135801.69
000280 4c 5c a7 48 d0 c3 1a c7 38 25 83 49 ad d8 ad c8
       342754.38 -39619.812 1.074343e+06 -356037.4
000290 9e a7 a3 48 75 52 b8 c8 06 5b 4e 49 87 1c e2 48
       335164.94 -377491.66 845232.4 463076.22
0002a0 88 7d 46 c9 bb be 57 c9 42 c5 38 49 01 e8 c5 48
       -813016.5 -883691.7 756820.1 405312.03
0002b0 b9 37 7c 49 65 11 74 48 22 63 02 49 ff 98 95 48
       1.03308356e+06 249925.58 534066.1 306375.97
0002c0 eb 44 0a 48 b7 3e 93 49 0a 04 aa 49 e1 ed ea 49
       141587.67 1.2062309e+06 1.3927692e+06 1.9245401e+06
0002d0 09 f0 9f 49 c6 51 df 48 a6 76 08 4a 63 ef 1d 4a
       1.3102091e+06 457358.2 2.2358175e+06 2.5876088e+06
0002e0 e4 6a de 49 92 8c ce 49 e8 3d 09 49 3a dc 68 49
       1.8220445e+06 1.6920502e+06 562142.5 953795.6
0002f0 c7 87 c9 49 a6 b6 f6 49 ef 1b 92 49 6e 8d ab 48
       1.6509369e+06 2.0210768e+06 1.1969259e+06 351339.44
000300 37 75 94 49 8b 7d d0 48 53 23 18 4a b5 b3 65 49
       1.2161669e+06 426988.34 2.4926288e+06 940859.3
000310 3c a3 7a 49 b0 0b 9c 49 0b 23 f6 48 d6 02 37 48
       1.02661175e+06 1.278326e+06 504088.34 187403.34
000320 ed 24 03 49 de 04 d5 48 12 c2 16 49 a1 de c9 48
       537166.8 436262.94 617505.1 413429.03
000330 7b 5e 29 47 57 f9 82 49 e1 2a 10 48 e7 f1 4a 48
       43358.48 1.0729389e+06 147627.52 207815.61
000340 07 c9 ad 48 9d 95 71 49 08 d4 18 49 d6 46 a5 49
       355912.22 989529.8 625984.5 1.3539468e+06
000350 5b 89 52 49 09 7e 94 49 b7 95 72 49 90 98 c2 48
       862357.7 1.2164491e+06 993627.44 398532.5
000360 a0 ee 0a 49 37 49 a0 48 a3 10 05 49 50 aa 0c 46
       569066.0 328265.72 545034.2 9002.578
000370 33 3b d8 49 79 e1 5c 49 9e 2e 96 49 18 51 09 49
       1.7713664e+06 904727.56 1.2302918e+06 562449.5
000380 3a 44 70 49 c9 cc e1 49 39 39 c6 49 b7 42 d5 49
       984131.6 1.8497531e+06 1.6238471e+06 1.7470309e+06
000390 be 4a 54 49 80 1f 3e 49 aa 1f a6 48 23 61 c3 49
       869547.9 778744.0 340221.3 1.6005484e+06
0003a0 29 01 cc 49 a5 8f 8b 49 cd fc d4 48 68 77 a6 49
       1.6712051e+06 1.1432846e+06 436198.4 1.363693e+06
0003b0 cf 8a 4b 49 30 c6 87 49 ea 10 a5 48 54 50 22 49
       833708.94 1.112262e+06 338055.3 664837.25
0003c0 8a b4 36 49 d8 00 dc 48 66 b8 7d 48 9b 11 2f 49
       748360.6 450566.75 259809.6 717081.7
0003d0 a5 db 71 49 ad 09 01 49 bc c6 43 48 31 1b 76 47
       990650.3 528538.8 200474.94 63003.19
0003e0 ed d1 ea 48 c1 87 91 48 b2 b5 37 48 75 5a d5 48
       480911.4 298046.03 188118.78 436947.66
0003f0 f3 94 f0 48 35 da e2 48 53 66 5a 49 73 87 c8 48
       492711.6 464593.66 894565.2 410683.6
